…
ff","executionInfo":{"status":"ok","timestamp":1578486574453,"user_tz":-330,"elapsed":722,"user":{"displayName":"Venkatesh Nagandla","photoUrl":"","userId":"00105523213734113975"}},"colab":{"base_uri":"https://localhost:8080/","height":391}},"source":["model.summary()"],"execution_count":0,"outputs":[{"output_type":"stream","text":["Model: \"sequential\"\n","_________________________________________________________________\n","Layer (type)                 Output Shape              Param #   \n","=================================================================\n","conv2d (Conv2D)              (None, 29, 29, 32)        1568      \n","_________________________________________________________________\n","max_pooling2d (MaxPooling2D) (None, 14, 14, 32)        0         \n","_________________________________________________________________\n","conv2d_1 (Conv2D)            (None, 11, 11, 32)        16416     \n","_________________________________________________________________\n","max_pooling2d_1 (MaxPooling2 (None, 5, 5, 32)          0         \n","_________________________________________________________________\n","flatten (Flatten)            (None, 800)               0         \n","_________________________________________________________________\n","dense (Dense)                (None, 256)               205056    \n","_________________________________________________________________\n","dense_1 (Dense)              (None, 10)                2570      \n","=================================================================\n","Total params: 225,610\n","Trainable params: 225,610\n","Non-trainable params: 0\n","_________________________________________________________________\n"],"name":"stdout"}]},{"cell_type":"code","metadata":{"id":"V3pgVeUdIan6","colab_type":"code","colab":{}},"source":["from tensorflow.keras.callbacks import EarlyStoppin
…
